…
 model.layers[0].self_attn.q_proj.forward\n    \n        with apply_functional_lora(model, lora_dict, hc):\n            pass  # just enter and exit\n    \n>       assert model.layers[0].self_attn.q_proj.forward is orig_forward, (\n            \"forward should be restored after context exit\"\n        )\nE       AssertionError: forward should be restored after context exit\nE       assert forward is forward\nE        +  where forward = Linear(in_features=16, out_features=16, bias=False).forward\nE        +    where Linear(in_features=16, out_features=16, bias=False) = _FakeSelfAttn(\\n  (q_proj): Linear(in_feat\n\n... [2504 characters truncated] ...\n\nn  (o_proj): Linear(in_features=16, out_features=16, bias=False)\\n) = _FakeLayer(\\n  (self_attn): _FakeSelfAttn(\\n    (q_proj): Linear(in_features=16, out_features=16, bias=False)\\n    (k_proj): Linear(in_features=16, out_features=16, bias=False)\\n    (v_proj): Linear(in_features=16, out_features=16, bias=False)\\n    (o_proj): Linear(in_features=16, out_features=16, bias=False)\\n  )\\n).self_attn\n\nlibs/model-training/tests/test_d2l_lora.py:194: AssertionError\n_____________ TestSkipBehavior.test_non_target_layers_not_patched ______________\n\nself = <test_d2l_lora.TestSkipBehavior object at 0x10f8e1310>\n\n    def test_non_target_layers_not_patched(self) -> None:\n        model = _FakeModel(D, N_LAYERS)\n        lora_dict =
…
 = model.layers[2].self_attn.q_proj.forward\n    \n        with apply_functional_lora(model, lora_dict, hc):\n>           assert model.layers[0].self_attn.q_proj.forward is orig_fwd_layer0, (\n                \"layer 0 should NOT be patched (not in layer_indices)\"\n            )\nE           AssertionError: layer 0 should NOT be patched (not in layer_indices)\nE           assert forward is forward\nE            +  where forward = Linear(in_features=16, out_features=16, bias=False).forward\nE            +    where Linear(in_features=16, out_features=16, bias=False) = _FakeSelfAttn(\\n  (q_proj): Linear(in_features=16, out_features=16, bias=False)\\n  (k_proj): Linear(in_features=16, out_features=16, bias=False)\\n  (v_proj): Linear(in_features=16, out_features=16, bias=False)\\n  (o_proj): Linear(in_features=16, out_features=16, bias=False)\\n).q_proj\nE            +      where _FakeSelfAttn(\\n  (q_proj): Linear(in_features=16, out_features=16, bias=False)\\n  (k_proj): Linear(in_features=16, out_features=16, bias=False)\\n  (v_proj): Linear(in_features=16, out_features=16, bias=False)\\n  (o_proj): Linear(in_features=16, out_features=16, bias=False)\\n) = _FakeLayer(\\n  (self_attn): _FakeSelfAttn(\\n    (q_proj): Linear(in_features=16, out_features=16, bias=False)\\n    (k_proj): Linear(in_features=16, out_features=16, bias=False)\\n    (v_proj): Linear(in_features=16, out_features=16, bias=False)\\n    (o_proj): Linear(in_features=16, out_features=16, bias=False)\\n  )\\n).self_attn\n\nlibs/model-training/tests/test_d2l_lora.py:241: AssertionError\n================================ tests coverage ================================\n______________ coverage: platform darwin, python 3.13.12-final-0 _______________\n\nName                                                     Stmts   Miss Branch BrPart  Cover   Missing\n
…
